00_Curso_Folder/1-Fixed_Function_AI/Class_05/docs/cifar10_quant.tflite (tflite, 177464 bytes, 8 tensors)

arith.constant f4 [32]
-0.024023542 0.025104826 -0.08519532 0.03328244 -0.0006639149 0.015029182 -0.033600107 -0.02425661
0.010787021 0.025576277 0.07668582 0.028486794 -0.042855542 -0.027526813 0.22663291 -0.34497356
0.03564782 0.0058429544 -0.13669093 -0.0296438 -0.019965805 0.008120413 0.010486269 -0.010368831
0.002622904 0.008411269 0.0036956405 -0.051365424 -0.21259001 -0.21566528 0.07651105 0.028627953
00000000: 05cd c4bc a3a8 cd3c e27a aebd 2b53 083d
00000010: 930a 2eba f53c 763c 44a0 09bd ccb5 c6bc
00000020: 0cbc 303c 5785 d13c 750d 9d3d 235d e93c
00000030: 4b89 2fbd e97f e1bc 7512 683e 60a0 b0be
00000040: 7303 123d 4176 bf3b b5f8 0bbe 8ed7 f2bc
00000050: 548f a3bc 7b0b 053c 9ace 2b3c 08e2 29bc
00000060: 07e5 2b3b 6bcf 093c 8f32 723b 8d64 52bd
00000070: 32b1 59be 5cd7 5cbe d3b1 9c3d 2b85 ea3c

arith.constant1 f4 [32, 3, 3, 3]
0.19933137 -0.033714414 -0.07161615 0.21833353 -0.08940338 0.04857809 0.04198489 -0.104959875
0.1666813 0.17866942 -0.22625946 -0.007334538 0.057243966 -0.022709167 0.10084464 0.1816099
-0.13848223 0.1171574 0.010573487 -0.18194956 -0.0076028057 0.022065654 -0.2219759 -0.038374014
0.022590352 -0.23025037 0.10407868 -0.011559035 0.161716 0.183198 0.2609961 0.268022
0.21433178 -0.26721314 -0.22511807 -0.18242106 -0.11206918 -0.16483763 -0.20291848 -0.07876635
-0.088435926 0.13069674 0.15405782 0.19956549 0.100346 -0.043988265 0.08676973 -0.15636617
-0.16155228 -0.23395139 -0.3367951 0.1078072 0.005406243 0.033624485 -0.13261995 0.07011888
0.11140922 -0.010696474 0.08939452 0.07728998 -0.07721191 0.15948741 -0.1245719 0.074223235
0.24618343 0.014732069 0.116635755 0.039318476 -0.12636836 0.041519955 0.22812282 -0.064911984
-0.04764104 -0.043210205 -0.2740387 -0.1254232 0.18680726 -0.3524537 0.093551256 0.06399019
-0.3123264 -0.2805094 -0.1183146 -0.25120795 -0.27868447 -0.28837594 -0.13823049 -0.24037322
-0.13981715 -0.23952967 0.107836336 -0.040723268 0.096720755 0.13702737 0.13125771 0.031345055
0.08785289 0.13719554 0.16380528 0.16252358 0.20267001 0.080495656 0.10530971 0.017171383
0.12315634 0.2152516 -0.021157106 0.16154942 0.11325406 0.041773513 0.07956061 -0.25249735
-0.2927693 -0.2922056 -0.06747141 -0.043909073 -0.0028955876 0.24579243 0.11883238 0.25683352
0.08603299 -0.098784626 0.1266062 -0.22573514 -0.19688414 -0.35629705 0.10402538 -0.06024346
0.18582341 0.11671919 0.27089065 0.23230685 0.0068198824 0.012598713 -0.046066884 -0.18410775
-0.2880965 -0.23712148 -0.050777283 0.20066515 0.14935188 0.05817976 -0.03617798 -0.0016162263
0.12170406 0.08729822 -0.081585385 0.2006632 0.2680161 0.33070052 -0.0023756488 -0.1703176
0.033387102 0.013291045 0.058353305 -0.019472593 -0.017223556 0.028248373 -0.04499675 -0.14141406
-0.19789337 -0.18859719 -0.029797358 0.008706854 -0.09635458 0.1701467 0.16772854 0.0744591
-0.07541882 0.20270287 0.15390065 -0.11956883 0.095355205 0.10829568 -0.12491529 0.1479579
0.11977538 -0.0033675428 0.08432516 0.06164449 0.09446419 -0.10291685 -0.042382147 -0.12643237
-0.17124371 -0.20979913 -0.22644469 -0.17928244 -0.107614845 0.1839332 0.18747962 -0.002191088
0.16843277 0.12932628 0.10309473 0.14129911 0.20418186 0.13659681 -0.102625765 -0.23203032
-0.23120362 -0.122508295 0.08166099 0.065090336 0.07071789 0.0647118 0.15118273 -0.06685267
-0.12007219 -0.12715267 -0.227685 -0.2189713 -0.20771861 -0.08528411 -0.045149688 0.03819562
-0.046787716 -0.1019146 -0.32367247 -0.2573014 -0.3238083 -0.25556752 -0.04773968 -0.12734562
-0.1464325 -0.31673908 -0.35600895 -0.27972832 -0.13999477 0.01480985 -0.080658615 0.258768
0.0065166666 0.15285292 -0.13476741 -0.16979648 0.015217956 0.29415667 0.32120976 0.0024233018
0.31836444 0.17772596 0.023001641 0.06476156 0.08741936 0.15416121 0.20748155 0.20176001
0.02202387 0.011360887 0.0062562046 0.035696942 0.048062768 -0.037009053 -0.13440235 -0.03884433
00000000: 861d 4c3e 2018 0abd 7dab 92bd d392 5f3e
00000010: 1f19 b7bd d2f9 463d 59f8 2b3d 34f5 d6bd
00000020: 81ae 2a3e 1ef5 363e 8fb0 67be 9056 f0bb
00000030: a678 6a3d 9308 babc a287 ce3d f2f7 393e
00000040: 49ce 0dbe 38f0 ef3d 6b3c 2d3c fc50 3abe
00000050: f520 f9bb 08c3 b43c a64d 63be 122e 1dbd
00000060: 670f b93c c1c6 6bbe 3427 d53d 1b62 3dbc
00000070: e198 253e 4298 3b3e 48a1 853e 2e3a 893e
00000080: ca79 5b3e 29d0 88be 5a85 66be 96cc 3abe
00000090: 8784 e5bd 32cb 28be ddc9 4fbe 4150 a1bd
000000a0: e51d b5bd 5ed5 053e 55c1 1d3e e55a 4c3e
000000b0: 3482 cd3d 0a2d 34bd 54b4 b13d 741e 20be
000000c0: f66d 25be f490 6fbe 6870 acbe 05ca dc3d
000000d0: da26 b13b d4b9 093d 86cd 07be 7d9a 8f3d
000000e0: 842a e43d 4440 2fbc 7914 b73d 364a 9e3d
000000f0: 4721 9ebd ab50 233e 8d1f ffbd 5a02 983d
00000100: 8217 7c3e c75e 713c bade ee3d 690c 213d
00000110: b566 01be d410 2a3d 0799 693e 93f0 84bd
00000120: 4023 43bd 2ffd 30bd cd4e 8cbe f06e 00be
00000130: 674a 3f3e d074 b4be cd97 bf3d 4a0d 833d
00000140: 3fe9 9fbe ee9e 8fbe ed4e f2bd 549e 80be
00000150: bbaf 8ebe 03a6 93be 4b8c 0dbe 6624 76be
00000160: 3a2c 0fbe 4447 75be 4cd9 dc3d 71cd 26bd
00000170: 8815 c63d e750 0c3e 6c68 063e ac63 003d
00000180: 37ec b33d fd7c 0c3e 92bc 273e 956c 263e
00000190: ba88 4f3e e8da a43d 9eac d73d 00ab 8c3c
000001a0: 6439 fc3d ea6a 5c3e ab51 adbc 366d 253e
000001b0: bff1 e73d b41a 2b3d acf0 a23d 5547 81be
000001c0: dce5 95be f99b 95be 732e 8abd 00da 33bd
000001d0: e6c3 3dbb 03b1 7b3e 645e f33d af7f 833e
000001e0: 1032 b03d 984f cabd 0ea5 013e 1d27 67be
000001f0: ff9b 49be 916c b6be 420b d53d d9c1 76bd
00000200: 7e48 3e3e 780a ef3d 2eb2 8a3e d9e1 6d3e
00000210: 5279 df3b d56a 4e3c a1b0 3cbd be86 3cbe
00000220: 6281 93be f9cf 72be d7fb 4fbd 2a7b 4d3e
00000230: b3ef 183e e64d 6e3d 5d2f 14bd 8ed7 d3ba
00000240: fa3f f93d 69c9 b23d 3d16 a7bd a77a 4d3e
00000250: 6839 893e 9451 a93e c6b0 1bbb bd67 2ebe
00000260: eac0 083d afc2 593c e003 6f3d fd84 9fbc
00000270: 6a18 8dbc 2269 e73c 834e 38bd d9ce 10be
00000280: 8fa4 4abe 9f1f 41be 9719 f4bc 31a7 0e3c
00000290: 8d55 c5bd f03a 2e3e 08c1 2b3e 037e 983d
000002a0: 2f75 9abd 5791 4f3e 2298 1d3e 81e0 f4bd
000002b0: 9749 c33d 20ca dd3d 96d3 ffbd 4782 173e
000002c0: cb4c f53d feb1 5cbb abb2 ac3d ef7e 7c3d
000002d0: 7176 c13d 12c6 d2bd e798 2dbd 7d77 01be
000002e0: 835a 2fbe 95d5 56be 1ee1 67be d195 37be
000002f0: 2c65 dcbd fc58 3c3e a8fa 3f3e 5b98 0fbb
00000300: a479 2c3e 1c6e 043e 5423 d33d b7b0 103e
00000310: 0d15 513e 09e0 0b3e 752d d2bd 5b99 6dbe
00000320: a4c0 6cbe a1e5 fabd e13d a73d 154e 853d
00000330: 8bd4 903d 9f87 843d a5cf 1a3e 0dea 88bd
00000340: 69e8 f5bd 4f34 02be 4226 69be 033a 60be
00000350: 30b4 54be 6fa9 aebd e1ee 38bd 0373 1c3d
00000360: 7aa4 3fbd 9ab8 d0bd 66b8 a5be 02bd 83be
00000370: 34ca a5be bfd9 82be af8a 43bd e466 02be
00000380: 67f2 15be a02b a2be ce46 b6be 8d38 8fbe
00000390: ca5a 0fbe 03a5 723c 5830 a5bd 3d7d 843e
000003a0: c389 d53b 7a85 1c3e 7800 0abe 21df 2dbe
000003b0: bc54 793c b49b 963e 9b75 a43e 42d0 1e3b
000003c0: aa00 a33e cbfd 353e f06d bc3c b5a1 843d
000003d0: ec08 b33d 70dc 1d3e 0b76 543e 2d9a 4e3e
000003e0: 676b b43c 0423 3a3c d900 cd3b f536 123d
000003f0: 77dd 443d ce96 17bd c5a0 09be 3b1b 1fbd

arith.constant3 f4 [10]
-0.1680874 -0.16180605 0.0023235022 0.07326255 0.20608819 -0.20241424 0.14102633 -0.09255598
0.20292242 -0.016288757
00000000: 1a1f 2cbe 7cb0 25be e645 183b ad0a 963d
00000010: c808 533e ae45 4fbe 3569 103e fd8d bdbd
00000020: e5ca 4f3e 0070 85bc

arith.constant4 f4 [64]
-0.0009754287 -0.020719187 -0.014353365 -0.02887811 -0.00901521 -0.008036908 -0.06352064 0.18655255
-0.007390209 -0.02953639 0.2443875 0.20890899 -0.025769688 -0.0266866 0.00074800884 -0.009775373
-0.11875187 -0.024803376 -0.03171279 0.045142323 0.11737867 -0.02086125 -0.022697406 -0.04262736
-0.18864873 0.25866202 0.08473588 -0.035733037 -0.013354931 0.03715552 -0.03042395 0.34302056
-0.024369227 -0.06188968 -0.02621439 -0.15740544 0.19614528 0.045523487 -0.0073831608 -0.008561346
0.055566166 -0.028380336 0.01929825 -0.051634386 -0.015965285 -0.020497791 0.23439772 -0.008192903
0.09508544 -0.00341563 -0.0063535343 0.16841507 0.22075799 0.19275135 0.12986834 0.2707515
-0.05493812 -0.084439896 0.085103214 0.06877809 -0.17824557 -0.12690799 0.27341917 -0.018141583
00000000: e9b3 7fba 49bb a9bc 602a 6bbc c991 ecbc
00000010: 88b4 13bc 3cad 03bc 1c17 82bd a207 3f3e
00000020: 9129 f2bb 4df6 f1bc b840 7a3e 3dec 553e
00000030: f41a d3bc db9d dabc 0616 443a e328 20bc
00000040: 2e34 f3bd 7330 cbbc 45e5 01bd 28e7 383d
00000050: 3a64 f03d 36e5 aabc e9ef b9bc 079a 2ebd
00000060: 222d 41be 596f 843e 018a ad3d ce5c 12bd
00000070: a4ce 5abc 6330 183d a63b f9bc 64a0 af3e
00000080: f9a1 c7bc 0880 7dbd 8fbf d6bc e42e 21be
00000090: 4fda 483e d676 3a3d 71ee f1bb e344 0cbc
000000a0: 5999 633d e17d e8bc 5d17 9e3c 947e 53bd
000000b0: a1c9 82bc fcea a7bc f505 703e 873b 06bc
000000c0: 28bc c23d c3d8 5fbb 4f31 d0bb 0075 2c3e
000000d0: 620e 623e 9c60 453e 35fc 043e f19f 8a3e
000000e0: cb06 61bd d3ee acbd 984a ae3d 87db 8c3d
000000f0: 0286 36be 2bf4 01be 99fd 8b3e a89d 94bc

arith.constant5 f4 [10, 64]
-0.02824628 -0.115711644 -0.23990726 -0.11583874 -0.035893764 0.28729546 0.424863 -0.1885649
0.06140388 -0.1688859 -0.09953767 -0.35735992 -0.14098884 -0.038283706 0.2431953 0.053953566
0.33169544 -0.108869374 -0.034397576 -0.5633314 0.3596971 -0.07640423 -0.08799804 0.0032694929
0.33121392 0.35080862 0.33552203 -0.14793219 0.15573622 0.22662301 -0.13179497 0.107680984
-0.009424995 -0.18762659 -0.13885328 -0.012585969 -0.47270665 0.18983181 -0.23325302 -0.15787457
-0.18582138 0.15602759 0.37239236 -0.12708946 0.18237579 0.08944461 0.07467973 0.47779012
-0.1573257 0.16665739 -0.25236627 -0.20808324 -0.1495658 0.37812182 0.13838536 -0.27107894
-0.26697433 0.15561035 -0.07601975 -0.30769017 0.10542174 -0.07870572 -0.59175485 0.22891985
0.086176164 0.34178725 -0.25085214 -0.0466216 -0.1001441 0.10766406 0.3117807 -0.13056745
0.25874665 0.117916994 -0.26911995 0.36323616 -0.14618161 0.20309468 -0.621144 0.17193606
-0.29268515 0.05317997 0.23538019 -0.35333413 -0.36180905 -0.04055782 0.2473369 -0.20839566
0.21424614 -0.3705338 0.42831415 -0.051056918 0.17664179 0.099435806 -0.13356565 -0.37822238
0.06919051 0.086570285 0.18383785 0.34796196 0.3127589 0.28821018 0.014945053 -0.13429509
-0.33941332 -0.20805117 -0.44728178 0.14581938 0.24752738 0.1429388 -0.2936019 -0.19594671
-0.14600828 -0.056665245 0.022195227 -0.62777096 0.01580085 -0.26446685 0.17615078 0.092157744
0.04993772 0.18775728 -0.28551158 0.15906753 -0.19583239 0.38703638 -0.016185926 0.23921081
-0.21025497 0.24453719 0.21206892 -0.1282694 0.21385753 0.15394591 -0.20714062 -0.1472741
-0.25498697 0.145486 0.29892898 0.016239563 -0.1729944 -0.1973484 -0.25111184 -0.18047257
0.083859675 -0.25364158 0.039497755 -0.3669933 0.28801927 -0.18828733 -0.030859305 0.3594892
-0.24906135 0.13170837 -0.22046128 0.15159935 0.2354833 -0.07752153 -0.11413311 -0.15132755
-0.00010708688 0.016369492 -0.07711009 0.07558153 -0.38312972 -0.19224901 0.018248655 0.013892086
-0.27347958 0.22357431 0.23616536 0.22392555 0.07852908 -0.004122391 0.35768005 -0.14638019
-0.29335287 -0.21254775 0.21022671 0.060822506 0.51325935 0.13794002 -0.37807143 -0.23202847
0.06319521 -0.0089015225 0.3016185 0.15870269 -0.081466824 -0.26818407 0.2596843 0.105862804
0.0114920745 0.040209495 -0.09281105 -0.07793907 -0.0965274 0.14893019 0.1226677 -0.31581905
0.060385942 -0.27416176 0.2129506 0.1547374 -0.07774212 0.15677573 -0.34694505 -0.14147007
-0.11226757 0.19289602 0.10615665 -0.2942614 -0.3894909 -0.08954089 -0.24185589 -0.3652278
0.19148654 -0.22391135 -0.38504776 -0.06858449 -0.116499975 0.15121874 -0.08357836 -0.17925613
-0.13037407 0.2079927 0.18219578 -0.00064470764 -0.08322533 -0.046447825 0.11714817 0.23881747
0.24980836 0.018541891 0.13609545 0.24338037 0.20593774 -0.04126849 -0.050905608 -0.4091705
0.20137405 0.15192749 -0.2799964 0.20718446 -0.35112444 0.2478811 0.09155514 0.42435765
-0.29283112 0.035136424 -0.11594191 0.22425644 0.09364425 -0.1838783 0.06347689 0.19067946
00000000: be64 e7bc 3afa ecbd 40aa 75be dc3c edbd
00000010: 5705 13bd 6418 933e a587 d93e 2817 41be
00000020: a382 7b3d 6df0 2cbe 68da cbbd e1f7 b6be
00000030: 615f 10be 60cf 1cbd 3008 793e 6afe 5c3d
00000040: fcd3 a93e e8f6 debd 79e4 0cbd 7d36 10bf
00000050: 382a b83e d279 9cbd 5138 b4bd fd44 563b
00000060: df94 a93e 309d b33e 8bc9 ab3e 897b 17be
00000070: 5179 1f3e dd0f 683e 43f5 06be d987 dc3d
00000080: 4b6b 1abc 2f21 40be 8e2f 0ebe 6135 4ebc
00000090: 9b06 f2be 4563 423e e1d9 6ebe dfa9 21be
000000a0: f647 3ebe b2c5 1f3e 36aa be3e bd23 02be
000000b0: b8c0 3a3e bc2e b73d b0f1 983d e8a0 f43e
000000c0: fd19 21be 3ca8 2a3e 2736 81be c613 55be
000000d0: c727 19be 2f99 c13e e4b4 0d3e dcca 8abe
000000e0: dcb0 88be 5258 1f3e 3eb0 9bbd 9189 9dbe
000000f0: 5ae7 d73d 7730 a1bd 3f7d 17bf f769 6a3e
00000100: 217d b03d bdfe ae3e b16f 80be 4af6 3ebd
00000110: 5a18 cdbd fa7e dc3d b8a1 9f3e 79b3 05be
00000120: 717a 843e 777e f13d 17ca 89be 17fa b93e
00000130: a2b0 15be 0df8 4f3e 4b03 1fbf 0210 303e
00000140: d4da 95be 3dd3 593d 8107 713e 36e8 b4be
00000150: 093f b9be f51f 26bd e245 7d3e ac65 55be
00000160: 5763 5b3e 9bb6 bdbe fe4b db3e 0f21 51bd
00000170: 96e1 343e 00a5 cb3d 6fc5 08be 5da6 c1be
00000180: c1b3 8d3d c34b b13d fd3f 3c3e 1228 b23e
00000190: ef21 a03e 4990 933e 18dc 743c a784 09be
000001a0: 95c7 adbe 5e0b 55be 1e02 e5be ad51 153e
000001b0: d177 7d3e 8c5e 123e fd52 96be 41a6 48be
000001c0: 3283 15be d119 68bd c4d2 b53c 99b5 20bf
000001d0: c970 813c 3368 87be df60 343e 33bd bc3d
000001e0: 7f8b 4c3d 7243 403e 932e 92be 99e2 223e
000001f0: 4988 48be a229 c63e 5998 84bc aef3 743e
00000200: 144d 57be f567 7a3e 9828 593e 0e59 03be
00000210: 78fd 5a3e ffa3 1d3e ac1c 54be 06cf 16be
00000220: a78d 82be 48fa 143e 380d 993e d508 853c
00000230: 7225 31be b315 4abe bb91 80be cdcd 38be
00000240: 9fbe ab3d 4fdd 81be 66c8 213d 8ce6 bbbe
00000250: 4377 933e 65ce 40be a7cc fcbc f80e b83e
00000260: f009 7fbe 8fde 063e 9ac0 61be dc3c 1b3e
00000270: 8922 713e 9cc3 9ebd 9fbe e9bd 9cf5 1abe
00000280: d593 e0b8 5019 863c e5eb 9dbd 7dca 9a3d
00000290: 9429 c4be eddc 44be 347e 953c a29b 633c
000002a0: 8405 8cbe aaf0 643e 55d5 713e bd4c 653e
000002b0: dbd3 a03d 1f15 87bb d721 b73e b0e4 15be
000002c0: 5932 96be 1ea6 59be ac45 573e 0521 793d
000002d0: f764 033f 2640 0d3e 9492 c1be df98 6dbe
000002e0: 7e6c 813d b1d7 11bc bd6d 9a3e f582 223e
000002f0: 14d8 a6bd 6c4f 89be 57f5 843e 99ce d83d
00000300: 4149 3c3c b6b2 243d b813 bebd 859e 9fbd
00000310: 28b0 c5bd 2881 183e 3439 fb3d 09b3 a1be
00000320: 4057 773d ee5e 8cbe b90f 5a3e 7b73 1e3e
00000330: 4337 9fbd d189 203e c8a2 b1be 88dd 10be
00000340: 8aec e5bd 8986 453e a868 d93d 6ea9 96be
00000350: 5a6b c7be 3761 b7bd 12a9 77be 23ff babe
00000360: 0c15 443e 0449 65be fb24 c5be 0676 8cbd
00000370: 8a97 eebd 16d9 1a3e 222b abbd eb8e 37be
00000380: c880 05be 0afc 543e 8891 3a3e 9901 29ba
00000390: 0b72 aabd 1340 3ebd 61eb ef3d 918c 743e
000003a0: c3cd 7f3e 2ae5 973c 9b5c 0b3e b438 793e
000003b0: 58e1 523e 2609 29bd 6682 50bd cc7e d1be
000003c0: 0035 4e3e e192 1b3e b05b 8fbe 2a28 543e
000003d0: 95c6 b3be 8bd4 7d3e 4381 bb3d 6845 d93e
000003e0: f6ed 95be 36eb 0f3d f472 edbd 7ba3 653e
000003f0: 8ec8 bf3d 984a 3cbe 2c00 823d 7a41 433e

arith.constant6 f4 [64]
0.14252193 0.24442995 -0.048943613 0.25741926 -0.0074513066 -0.041806046 0.07473262 -0.012843922
-0.046722308 0.3845246 -0.059327155 -0.007943116 -0.044097017 -0.030685661 -0.0775745 -0.1116092
-0.02678232 0.08096467 -0.0057019037 -0.03473778 0.013317399 -0.12868026 0.0054095457 0.21213369
-0.032786395 -0.099920005 -0.0729881 0.15559918 0.10215434 0.14320818 -0.019950965 0.106690064
-0.031336334 -0.03849545 -0.15412788 -0.019222269 -0.04219408 -0.03428689 0.0037309157 -0.2244113
0.08567168 -0.045794357 0.009014852 0.0335713 0.17790723 -0.001995555 0.015026966 0.063165374
0.010955132 -0.03550972 0.0022667549 0.095933005 0.01965512 0.17700943 -0.045757357 -0.15148176
0.19476792 0.0653302 0.20571287 -0.041683033 0.29907465 -0.014404622 -0.029741729 -0.10604053
00000000: 45f1 113e d84b 7a3e 1979 48bd 75cc 833e
00000010: 172a f4bb d13c 2bbd 6a0d 993d 506f 52bc
00000020: e45f 3fbd 69e0 c43e 0801 73bd d823 02bc
00000030: 139f 34bd 7f60 fbbc 61df 9ebd 5d93 e4bd
00000040: 9966 dbbc ced0 a53d 09d7 babb 3449 0ebd
00000050: 3831 5a3c c2c4 03be 8f42 b13b 9339 593e
00000060: 074b 06bd dca2 ccbd c97a 95bd 6455 1f3e
00000070: 4b36 d13d 2aa5 123e 3570 a3bc 5280 da3d
00000080: 875a 00bd 68ad 1dbd b3d3 1dbe 0578 9dbc
00000090: b3d3 2cbd 6970 0cbd 6182 743b 13cc 65be
000000a0: a274 af3d dd92 3bbd 08b3 133c 0f82 093d
000000b0: 502d 363e dbc7 02bb aa33 763c d95c 813d
000000c0: 277d 333c a472 11bd d68d 143b 8678 c43d
000000d0: c603 a13c f641 353e 116c 3bbd 091e 1bbe
000000e0: 3e71 473e d7cb 853d 65a6 523e d4bb 2abd
000000f0: 5020 993e 5d01 6cbc eda4 f3bc c72b d9bd

tfl.pseudo_qconst i1 [64, 3, 3, 32]
8 -6 -11 -13 -40 -7 -14 6
17 13 4 -17 -46 -2 -19 4
-11 14 15 -36 2 1 -14 14
-27 3 21 -18 -21 16 9 14
-5 0 -4 -7 19 5 -24 -25
5 5 26 -3 -41 -7 3 -1
1 -25 -6 -23 -4 -2 -38 12
12 -8 -44 5 -13 -18 -4 -19
5 -9 -16 25 -23 36 27 13
17 29 -23 -15 -18 0 10 -11
6 -7 -8 16 -17 17 9 -5
-30 6 -21 -6 12 -5 -3 7
-6 -29 -8 15 27 43 12 -22
-15 0 30 -30 -90 4 -61 -21
15 -34 -10 -45 -7 -23 -10 -1
8 45 -21 -36 -2 -46 -47 10
27 23 -9 5 -34 38 9 32
8 11 -31 -30 -99 7 -44 -10
-16 33 4 -63 3 -22 8 -3
-29 -5 23 -35 11 20 -2 18
1 15 6 3 20 8 -34 -9
-39 -3 -3 -8 -27 3 -23 11
10 -30 -3 -17 -6 -27 -48 20
19 17 -54 -15 0 -1 -14 7
-14 9 6 16 19 -21 -17 -2
-69 -13 16 -56 -89 1 -82 -5
-9 26 8 -39 -4 -55 -31 20
23 -2 9 -9 -8 22 -15 19
-24 -17 -7 -12 28 44 -9 -2
-44 11 -12 -63 -127 -1 -37 -11
-21 20 27 -43 8 -34 -3 -16
11 28 -16 -37 17 -5 -37 -12
00000000: 08fa f5f3 d8f9 f206 110d 04ef d2fe ed04
00000010: f50e 0fdc 0201 f20e e503 15ee eb10 090e
00000020: fb00 fcf9 1305 e8e7 0505 1afd d7f9 03ff
00000030: 01e7 fae9 fcfe da0c 0cf8 d405 f3ee fced
00000040: 05f7 f019 e924 1b0d 111d e9f1 ee00 0af5
00000050: 06f9 f810 ef11 09fb e206 ebfa 0cfb fd07
00000060: fae3 f80f 1b2b 0cea f100 1ee2 a604 c3eb
00000070: 0fde f6d3 f9e9 f6ff 082d ebdc fed2 d10a
00000080: 1b17 f705 de26 0920 080b e1e2 9d07 d4f6
00000090: f021 04c1 03ea 08fd e3fb 17dd 0b14 fe12
000000a0: 010f 0603 1408 def7 d9fd fdf8 e503 e90b
000000b0: 0ae2 fdef fae5 d014 1311 caf1 00ff f207
000000c0: f209 0610 13eb effe bbf3 10c8 a701 aefb
000000d0: f71a 08d9 fcc9 e114 17fe 09f7 f816 f113
000000e0: e8ef f9f4 1c2c f7fe d40b f4c1 81ff dbf5
000000f0: eb14 1bd5 08de fdf0 0b1c f0db 11fb dbf4

tfl.pseudo_qconst1 i1 [64, 2304]
64 -55 14 5 -61 -24 8 -28
29 47 63 -15 -53 -104 -70 13
54 -54 -46 -35 -69 -55 -75 13
-35 -4 -73 -58 -61 61 1 -44
-55 -51 -26 -22 -36 9 -57 24
-65 -3 -12 -57 -49 -37 -65 -50
-23 52 -7 -28 2 28 -67 -39
33 63 17 22 58 -15 -37 55
-51 -13 -56 -47 -3 -5 35 -1
-42 -31 -47 -50 -71 -20 1 -16
-44 61 25 48 -105 -66 -71 5
-24 37 -70 17 25 53 21 -7
30 1 -11 -19 -63 11 -2 -18
-77 32 -31 29 31 39 33 37
-42 -49 -61 -61 -23 -64 66 -42
14 -28 20 21 -45 2 -27 49
-38 -74 50 -60 1 -5 3 -33
76 54 64 11 -73 -78 51 30
-65 67 29 57 10 58 -75 -28
-45 -10 49 -70 -6 7 -11 -4
-54 -59 -55 -44 -56 -66 -65 -89
-77 -15 28 -23 -14 -55 10 -81
-48 -32 -76 -80 -13 -97 57 64
11 35 33 -18 -1 -30 -29 -31
3 29 -4 53 -40 -68 -52 -49
-53 13 40 -57 15 30 8 32
-10 1 12 -55 12 12 -57 -2
51 -54 57 6 -24 31 54 73
4 -70 62 -63 -34 13 -70 -70
-39 -43 -77 55 -24 17 22 -19
-36 52 -55 -2 11 -103 20 -1
-69 -8 -47 -29 5 -80 -30 -44
00000000: 40c9 0e05 c3e8 08e4 1d2f 3ff1 cb98 ba0d
00000010: 36ca d2dd bbc9 b50d ddfc b7c6 c33d 01d4
00000020: c9cd e6ea dc09 c718 bffd f4c7 cfdb bfce
00000030: e934 f9e4 021c bdd9 213f 1116 3af1 db37
00000040: cdf3 c8d1 fdfb 23ff d6e1 d1ce b9ec 01f0
00000050: d43d 1930 97be b905 e825 ba11 1935 15f9
00000060: 1e01 f5ed c10b feee b320 e11d 1f27 2125
00000070: d6cf c3c3 e9c0 42d6 0ee4 1415 d302 e531
00000080: dab6 32c4 01fb 03df 4c36 400b b7b2 331e
00000090: bf43 1d39 0a3a b5e4 d3f6 31ba fa07 f5fc
000000a0: cac5 c9d4 c8be bfa7 b3f1 1ce9 f2c9 0aaf
000000b0: d0e0 b4b0 f39f 3940 0b23 21ee ffe2 e3e1
000000c0: 031d fc35 d8bc cccf cb0d 28c7 0f1e 0820
000000d0: f601 0cc9 0c0c c7fe 33ca 3906 e81f 3649
000000e0: 04ba 3ec1 de0d baba d9d5 b337 e811 16ed
000000f0: dc34 c9fe 0b99 14ff bbf8 d1e3 05b0 e2d4
